dqn_traffic_model.pth (torch, 80461 bytes, 6 tensors)

fc1.weight f4 [128, 9]
000000 25 74 f9 3e 96 33 4d 3f da 60 bc 3e 62 be 2e 3f
       0.48721424 0.8015684 0.36792642 0.6825925
000010 8b d8 98 bf 62 64 ca 3f 14 49 14 bf 21 ab 7e be
       -1.1941084 1.5811884 -0.5792401 -0.24869968
000020 0c 97 ad 3c 7e a4 89 3e f7 d3 a0 3e 4e 4b 60 3f
       0.021190189 0.2688331 0.31411716 0.87614906
000030 4a 5d 6b 3e fc 09 45 bf 8e fc 0f bf b7 c3 51 be
       0.22984806 -0.7696836 -0.5624474 -0.20484816
000040 2e 2b 58 3e 7c 15 8e be fe dd c7 3e 86 9f 44 be
       0.21110222 -0.27750766 0.39036554 -0.19201478
000050 d3 b9 9e be 8c f0 0c bf 1d 6a 82 3f e1 f4 82 3f
       -0.31001148 -0.55054545 1.0188633 1.0230981
000060 de f5 91 3f fb 63 94 3f 18 5f c7 bd 4d 9b 57 3f
       1.1403158 1.1593012 -0.097349346 0.84221345
000070 16 49 ef 3d a7 e7 7a 3e 97 9d 1e 3f ab 0a 0c c0
       0.11683862 0.24502431 0.61959213 -2.1881511
000080 bd f3 54 3f 6b a0 e0 3f f5 d5 90 bf f7 36 3a 3d
       0.83184415 1.7548956 -1.1315295 0.045462575
000090 2d 7f 6e c0 1f 62 eb 3e 2c ff 02 3e d1 9d a8 bf
       -3.7265122 0.45973298 0.12792653 -1.3173162
0000a0 31 59 fe 40 73 b6 7e 3f 91 1a c8 3f 15 5a be 40
       7.9483876 0.99497145 1.5633107 5.9484963
0000b0 96 77 99 3c 8d c9 02 3f 81 0e a6 bd 32 9a b4 3e
       0.01873378 0.5108879 -0.08108235 0.35273892
0000c0 8e cb 25 3f 47 14 9d 3f 84 16 9a bf fc d7 2b bf
       0.64763725 1.2271813 -1.2038121 -0.6712644
0000d0 68 8e 9b 3f 62 2d 07 be 2b c6 32 be 1c 6a 17 3f
       1.2152834 -0.13200906 -0.17458408 0.59146285
0000e0 97 15 43 3f be 1f 18 3f a4 c0 19 c0 0f 7f e4 3f
       0.7620482 0.59423435 -2.4023829 1.7851275
0000f0 dc 02 33 be c9 cf 15 bf b1 ea be ba 2e 83 06 3f
       -0.1748156 -0.5852018 -0.0014565793 0.52543914
000100 87 a0 4c 3f b3 3b 0e 3f d4 c1 8f bd 6c 01 12 be
       0.79932445 0.55559844 -0.07019392 -0.14258355
000110 e0 66 de 3e d0 0e b0 be b1 05 86 3f af 82 5f 3c
       0.43437862 -0.343863 1.0470487 0.013641997
000120 ce 82 ea 3e 6f 69 e2 3e 20 be 83 3f 9e 17 e2 3e
       0.4580292 0.44221064 1.0292397 0.44158643
000130 46 6b 7b 3f 84 ec a5 3c 5e a3 aa bf 2e c0 c2 3c
       0.9821056 0.020254381 -1.3331106 0.023773279
000140 13 55 fa bc 4b 77 da 3e 94 b2 44 3e 14 2b e7 3e
       -0.030558145 0.42669138 0.19208747 0.45150054
000150 28 a0 68 3f 70 e3 6f bf 40 22 5a be 4c e9 c3 bf
       0.9086938 -0.9370642 -0.21302128 -1.5305572
000160 d7 fe bd bf 8d 5d cb 3d 9d 9c 37 3f 5b 75 02 3f
       -1.4843396 0.09929953 0.7172335 0.5096032
000170 ff fa a1 3e 3b c7 f8 3e e2 2a a9 3f 38 d9 41 bf
       0.31636807 0.485895 1.3216212 -0.75722075
000180 d0 e4 76 bf 51 fe bd 3e 01 96 8b 3d 41 8e 8d 3e
       -0.9644289 0.3710809 0.0681572 0.27647594
000190 34 7b 9c bd c7 2c 82 be 80 af 91 bd d4 72 be 3d
       -0.07640687 -0.25424787 -0.07113552 0.092992455
0001a0 5e 8b 5b be 7b 4c 87 3e 1f c3 a6 be 7e ec 4f be
       -0.21439883 0.26425537 -0.3257074 -0.20305058
0001b0 4b 9a 29 40 65 f3 d1 3f 7a 6f d9 3f 43 68 80 3f
       2.6500423 1.6402403 1.6987145 1.0031818
0001c0 2c d8 24 c0 a7 92 b1 c0 90 cf af bf 3f 0b 34 c0
       -2.575694 -5.549152 -1.3735218 -2.8131864
0001d0 99 14 02 3e 17 0c 6c bf 7e 37 2a 3f 90 6c 89 3e
       0.1270317 -0.9220595 0.66490924 0.2684064
0001e0 85 fa 15 3f 93 e0 c3 3f 6f b2 8d be cb 90 99 bf
       0.5858539 1.530291 -0.27675197 -1.1997312
0001f0 ef 92 56 40 e0 bd ee 3d 1a 66 63 3f a3 1d 1e 3f
       3.352718 0.116573095 0.8882767 0.6176397
000200 0c ac 76 3f 51 51 e8 3e 0a 6b 80 3f 9d c3 27 be
       0.9635627 0.4537454 1.0032666 -0.16383214
000210 19 13 18 c0 4b b5 0c c0 ac bb 55 3d 33 57 5e 3d
       -2.3761656 -2.1985652 0.05218093 0.05428238
000220 3a 79 2b 3f 90 4b 39 3f 5a 1a 41 3f b4 c3 cc 3e
       0.6698185 0.72380924 0.75430834 0.3999306
000230 b6 70 55 bf 75 68 5f 3f 1b fd 76 bc 24 c6 29 3e
       -0.8337511 0.87268764 -0.0150749935 0.16579491
000240 14 0c f4 3e ef 9b 2c 3f 54 1a 0c 3f 9c 5f 25 3f
       0.47665465 0.67425436 0.54727674 0.64599013
000250 07 36 16 3e 4b d1 81 bf 2b 8f 4d bf 10 c9 68 3f
       0.14669047 -1.0141996 -0.8029658 0.909318
000260 db 06 d9 3d 55 0d 1b 3f 71 33 61 3f 4a 17 43 3f
       0.10597011 0.6056722 0.8796912 0.7620741
000270 5f 32 b9 3e c2 7e bf 3f 52 82 96 3b 94 8f 3a be
       0.36171243 1.4960558 0.004593172 -0.18218833
000280 04 08 a4 be 50 53 1b 3d a9 eb 5b 3d 46 50 63 3d
       -0.32037365 0.03792125 0.05369154 0.055496477
000290 89 58 8a be b8 eb 03 be 1c 23 30 3f 16 97 70 3f
       -0.27020672 -0.12882888 0.6880357 0.9398054
0002a0 05 1e 9e 3f d1 cc a5 3f d9 2e 9d bd 47 97 fb 3f
       1.2352911 1.295313 -0.07674951 1.9655541
0002b0 69 89 90 3f d1 04 ab 3f 19 79 4d 3f c9 8a 54 c0
       1.1291934 1.3360845 0.80262905 -3.3209708
0002c0 f5 5d 67 c0 d5 91 be bf b0 08 13 c0 f8 51 ff bc
       -3.6151097 -1.4888254 -2.2974052 -0.031167015
0002d0 bf 1c e2 bc ec c8 8b 3e 61 42 41 3f 73 98 8b 3e
       -0.027601598 0.2730173 0.7549191 0.27264747
0002e0 ac 89 9f bf 32 14 97 3f ef 4e f9 be 55 65 67 be
       -1.2463889 1.1803038 -0.48693034 -0.22597249
0002f0 24 34 72 3e d1 ac 06 3f e2 ee 1a 3f 27 8a 95 3f
       0.23652703 0.52607447 0.60520756 1.1682786
000300 9c 85 03 3e fa 07 dc be ec cf 9f bf 74 2f 89 bd
       0.12843937 -0.42974836 -1.2485328 -0.06698504
000310 57 bc df 3f 44 d7 3d 3d 5c b5 50 3f e0 ac 10 3f
       1.7479352 0.04634787 0.8152673 0.56513786
000320 8e 93 73 3f 06 e4 8b 3f 09 93 94 bf 74 81 12 3f
       0.95147026 1.0928962 -1.1607372 0.5722878
000330 06 71 51 c0 ea 6b ba bf 55 e4 2f 3d 3e 2c 83 3f
       -3.2725234 -1.4564183 0.042942364 1.0247877
000340 7b 08 63 3f 73 4d 1d 3f 71 a4 0b 3f 30 75 9a bf
       0.88684815 0.61446303 0.5454779 -1.2067013
000350 5a 56 a0 3f 9b 43 19 3e 5c 03 26 bf d9 b0 15 3d
       1.2526352 0.14967196 -0.64848876 0.03654561
000360 92 12 bc be 31 cb 5b 3e df a9 20 bd b4 ff 61 bd
       -0.36732918 0.2146423 -0.0392245 -0.055175498
000370 4f 45 0b 3f 1b d3 0f 3e d5 52 6c bf 05 d3 82 bf
       0.5440263 0.14045374 -0.9231389 -1.0220648
000380 1d f8 e6 3e 11 f1 82 be 9b 48 21 3e 74 7e b0 bd
       0.4511117 -0.25574544 0.15750353 -0.08617869
000390 b9 47 cb bd 77 3d 80 bd 2c ef b7 be 11 d9 ef be
       -0.099257894 -0.062617235 -0.3592466 -0.46845296
0003a0 35 02 99 be 21 c5 b0 3e 3b 45 38 be 43 17 52 bd
       -0.29884496 0.34525397 -0.1799516 -0.051291715
0003b0 e6 f7 4b 3d e3 d3 63 be 40 a2 fc bd 5a 62 e0 be
       0.04979696 -0.22248797 -0.12335634 -0.43825036
0003c0 01 e3 29 bf fb 6d c2 be d7 d5 79 3e c1 56 23 40
       -0.66362005 -0.37974533 0.2439798 2.55217
0003d0 68 5c 70 3f 7f ec 6c 3f cc c2 ce 3e 54 4c 48 bf
       0.93891 0.92548364 0.40382993 -0.7824147
0003e0 9a 53 18 bf 1b 50 be c0 a5 41 ac c0 a6 13 84 bd
       -0.59502566 -5.9472785 -5.3830132 -0.0644906
0003f0 79 25 9e 3f d9 72 73 3f 84 a2 7a 3f a8 cc 09 3f
       1.2355186 0.9509712 0.9790423 0.53827906

fc1.bias f4 [128]
000000 78 cd b0 bf 25 7e a4 3f 27 a7 ff be 26 ed 2f bf
       -1.3812704 1.2850996 -0.49932215 -0.68721235
000010 d3 d5 d7 3e 83 c5 af 3f 91 4c c9 3f 65 5c 6c bf
       0.42155322 1.3732151 1.5726491 -0.9232848
000020 a2 74 72 bf 22 a8 6f bf db 8b 91 bf 26 34 9e be
       -0.9470922 -0.93615925 -1.1370806 -0.3089916
000030 dd f1 fc 3e 29 e0 a0 be ac 8d 95 3f e6 63 78 bf
       0.49403277 -0.3142102 1.168386 -0.9702743
000040 c9 5d b6 bf ba a4 79 bf 65 da ff be 15 c3 6c 3f
       -1.4247371 -0.9751698 -0.4997131 0.9248517
000050 4a 64 b9 3f 66 54 8a bf c1 d8 b4 3f 27 e1 99 bf
       1.4483731 -1.0807006 1.4128648 -1.2021836
000060 48 b3 e5 3f 26 3f f5 3f 56 6d 09 40 af 2f 3d 3f
       1.7945337 1.9159896 2.1472983 0.73900884
000070 7b 26 ba bf ee 69 5f bf 9a 01 8e 3f a2 b9 9f be
       -1.4542993 -0.8727101 1.1094239 -0.31196314
000080 41 d9 af 3f 39 22 09 bf 16 9c a9 be 21 99 a0 be
       1.3738176 -0.53567845 -0.33126897 -0.31366828
000090 4f 24 b4 3f b6 c8 f9 3e ca 88 71 bf 63 18 51 be
       1.407358 0.48785943 -0.9434935 -0.20419459
0000a0 99 92 95 bf 18 b0 8f be 9c 6d 0c 40 d6 b5 ed 3f
       -1.1685363 -0.28064036 2.19419 1.8571117
0000b0 b0 00 a2 bf 26 5e be 3f 7f f6 85 3f 13 24 a0 bf
       -1.265646 1.4872482 1.046585 -1.2511009
0000c0 d6 bf a8 3f ff 6f e3 3f b7 2a cc 3f b0 68 e2 be
       1.3183544 1.7768553 1.5950536 -0.44220495
0000d0 6e ac 0b 40 07 0c d8 3f c1 a8 9a 3f b6 12 d4 3f
       2.1823993 1.687867 1.208275 1.656821
0000e0 7f 47 d3 bf b9 d6 87 bf 26 4e c5 3f 6b 5b b7 3f
       -1.6506194 -1.0612403 1.5414474 1.4324774
0000f0 9a 07 13 bf 8a 34 bf 3e a9 ba d7 3e 3a cb 96 be
       -0.57433474 0.37344772 0.42134598 -0.29451925
000100 88 1d 8d 3f 19 81 b5 be 28 ef ba bf df 3a 47 bf
       1.1024637 -0.35450056 -1.4604235 -0.77824205
000110 a3 6c 72 bf f7 9e 2e bf d1 a7 4e 3f 23 4c b5 3f
       -0.94697016 -0.6821131 0.8072482 1.416386
000120 bf 7d c3 bf c3 53 93 be 2f 9f ad bf 79 75 5e bf
       -1.527275 -0.28774843 -1.3564204 -0.86898
000130 92 a1 6c 3f 53 4e c9 bf cf 7d 97 bf 60 47 e6 bf
       0.92434037 -1.5727028 -1.1835269 -1.7990532
000140 1b d7 88 bf ba 16 04 40 df 9e d8 3f 23 a5 a5 bf
       -1.0690645 2.0638871 1.6923484 -1.2941021
000150 f3 e6 30 be a0 e3 98 3f 11 82 aa bf 47 c4 be 3f
       -0.172756 1.1944466 -1.3320943 1.4903649
000160 d0 e3 9f 3f 5f ec 64 bf 52 94 bf 3e e9 1e c8 bf
       1.2491398 -0.89423174 0.37417847 -1.5634433
000170 f2 64 3f bf 19 61 9d bf 54 57 07 bf 0b dd aa bf
       -0.74763405 -1.2295257 -0.5286763 -1.3348707
000180 39 af 63 bf 14 ea ad bf 08 93 91 be cb 6d 9d bf
       -0.88939244 -1.358706 -0.28432488 -1.2299131
000190 16 ed bc 3f 45 a1 01 bf d7 b1 44 bf c3 87 48 3f
       1.4759853 -0.506367 -0.7683386 0.78332156
0001a0 7a 83 97 be 7c 1b 81 bf 16 b9 73 bf ee 1d 89 be
       -0.29592496 -1.0086513 -0.95204294 -0.26780647
0001b0 f6 5c 04 3f c1 84 8a bf 5f ac 9b bf 47 d4 98 3f
       0.5170435 -1.0821763 -1.2161978 1.1939782
0001c0 4e 4b 81 3f 54 c3 9e 3f 9a 4e 99 bc be 1b 29 3f
       1.0101106 1.240336 -0.018714238 0.66057956
0001d0 93 e3 af bf 17 40 10 bf b5 3e f9 3e 2c 5c c3 3f
       -1.3741325 -0.56347793 0.48680654 1.5262504
0001e0 df a5 be 3f 0c df db 3f 17 2c 8d bf 79 d9 89 3f
       1.489437 1.7177444 -1.102908 1.0769492
0001f0 57 8e a5 3f ff 0d f4 be 42 4a 25 bf 49 fa dc 3f
       1.2934064 -0.47666928 -0.64566433 1.7263881

fc2.weight f4 [128, 128]
000000 cd f2 4c 3f 0d 35 de 3d 89 c1 0d 3f 0e a7 b6 3e
       0.80057985 0.108499624 0.55373436 0.35674328
000010 a8 0a a1 bf a5 22 9a bd 2b 51 9f 3e d2 80 f4 3f
       -1.2581377 -0.07526139 0.31116614 1.9101813
000020 7d a9 92 3f 7e f8 bf 3f a0 bb d1 3e 04 b8 43 bd
       1.1457974 1.4997709 0.4096346 -0.047782913
000030 69 a7 b5 3e 2c c4 54 bf f3 19 71 3e c5 6e a1 3f
       0.35479286 -0.83111835 0.23545055 1.2611929
000040 39 18 5b 3f b6 2a 6d 3f 04 cb e4 3e ba d9 d4 3e
       0.85583836 0.92643297 0.4468614 0.41572362
000050 bd 4d 87 3e b6 29 a9 3f 78 e8 a4 3e 71 b2 11 3f
       0.26426497 1.3215854 0.3220861 0.56912905
000060 40 85 5d bf dd da 8c bf e1 84 a3 bf 96 30 ce 3e
       -0.8653145 -1.1004292 -1.2774926 0.40271443
000070 ef 10 5b 3f 63 27 65 3f 5c 27 2e 3d 8e ea 0a 3d
       0.85572714 0.89513224 0.042518005 0.033915095
000080 f4 52 ac 3c 8a 04 a3 3f 5c ce 0e 3d 28 ee 51 3f
       0.021035649 1.273576 0.03486477 0.8200402
000090 68 e2 cd 3d 90 79 41 3e f0 47 e7 3f f1 12 1b bd
       0.10052949 0.18894029 1.8068829 -0.03785986
0000a0 3e a9 bc 3f b8 34 a6 3c d6 3b cc bf 19 a3 34 bd
       1.4739149 0.02028881 -1.595576 -0.044100855
0000b0 42 4e 24 3f 77 2f a2 3d c5 2d a6 3e 88 f1 82 3f
       0.6418191 0.079192095 0.32456794 1.022996
0000c0 16 aa 0b 3e f2 ac eb 3d 46 41 4d be bb fb a2 3f
       0.13639101 0.11507596 -0.20044431 1.2733072
0000d0 38 d2 ab bf 09 9a 03 c0 59 1e 04 3e 53 fe 24 3e
       -1.3423529 -2.0562766 0.12902202 0.16112642
0000e0 b0 c0 28 3f 87 84 33 3f f9 44 73 3e 5d 60 86 be
       0.6591902 0.70124096 0.2375678 -0.26245394
0000f0 6a 09 52 3f 67 73 73 c0 75 4e 1f 3d 5c d6 d2 3c
       0.82045615 -3.8039186 0.03889318 0.02573698
000100 4c 5f d5 3e 58 ca b4 3f 6b 00 34 3f a3 e3 ea 3e
       0.41674268 1.412425 0.7031314 0.45876798
000110 bf ad 90 3f 6e 65 3d 3f f9 65 b3 3e 1d c6 fc 3e
       1.1303023 0.73982894 0.35038736 0.49369898
000120 8a 37 51 3f 8e d6 8d bd 2a bc 4f 3f 94 db 80 3f
       0.8172537 -0.06925689 0.8114649 1.006701
000130 44 ba cd bd 1d 6b 0b 3f aa 5c 3c 3f 95 ad 63 3f
       -0.10045293 0.54460317 0.73578894 0.8893674
000140 2d 15 4a 3f 32 8a 8d bf f4 e2 8f bd 3e 6f 3a 3f
       0.7893856 -1.1057799 -0.0702571 0.7282599
000150 6c cc a3 bc 14 00 d2 3d c6 14 10 3f 3a 95 25 3e
       -0.019994937 0.10253921 0.562817 0.16170207
000160 0c 09 14 3e 1a 9d 11 40 19 a8 ce 3e e3 40 10 3f
       0.14456576 2.2752137 0.40362623 0.5634901
000170 5d 16 18 3f ab 85 29 3f fe 7f 2a 3f 9b 73 0a 3f
       0.59409124 0.66219586 0.6660155 0.5408265
000180 02 bb 05 3f fa 95 82 3f a4 57 47 bd 45 4b 91 3e
       0.52238476 1.0202019 -0.048667565 0.2837774
000190 36 6a 86 3d 75 b9 a6 3e 56 e5 dd 3f 31 80 0e 3f
       0.06563227 0.32563367 1.7335613 0.55664355
0001a0 14 55 b1 3c ea 80 fc 3f 91 22 03 3f 00 84 99 b8
       0.021647014 1.9726841 0.5122462 -7.3201954e-05
0001b0 48 6c b7 3e 8c 09 36 3f e4 08 7e 3e 8c 70 a7 3e
       0.358248 0.7110832 0.24808079 0.32703054
0001c0 4d b7 23 3e 9d f4 48 3e 36 c9 2b 3e 5c 4e 63 3e
       0.15987892 0.19624563 0.16775975 0.2219786
0001d0 35 4b 52 3f 2d 17 5d 3f 0e 9a 08 3f 9d 8f d8 ba
       0.82146007 0.8636349 0.5336007 -0.0016522292
0001e0 94 24 75 be ad c1 14 3e e3 7d cd 3d 4b 04 56 3e
       -0.23939735 0.14527006 0.100337766 0.20900075
0001f0 9a 6e 4b 3e 7b 46 c3 3e 4b c9 a6 3e c0 e8 bb 3c
       0.1986641 0.3813971 0.3257545 0.022938132
000200 3b 49 8e 3f 27 0a 8d 3f 6f c0 b2 3e 12 15 42 bf
       1.1116098 1.1018723 0.3491244 -0.758134
000210 13 98 4b c0 9c 02 b8 3e af 73 a4 3f 88 b1 c1 bf
       -3.1811569 0.3593949 1.2847804 -1.5132303
000220 72 02 6e 3d 61 5e c9 bf c5 80 8a bd eb a2 94 3d
       0.0581078 -1.5731927 -0.06762842 0.07257637
000230 1f 65 05 3f b7 7a a0 c0 34 2f 4c 3f 92 d7 2f 3f
       0.52107424 -5.01498 0.79759526 0.6868831
000240 f5 ca 44 3f 8e 0d ad 3f 54 ad f3 bd 05 ce 45 3f
       0.7687219 1.3519762 -0.11898294 0.77267486
000250 66 eb 98 3f 4e 93 b1 bf 84 c9 f2 3e ec de bb 3f
       1.1946838 -1.3873079 0.4741937 1.4677405
000260 b0 15 0a 40 11 79 0e 40 2d f2 1a 40 21 d4 92 3e
       2.1575737 2.2261393 2.4210312 0.28677467
000270 79 c7 e7 3f 1f b8 b6 3f 00 91 f9 3d 5c 3d 6e bd
       1.8107749 1.4274939 0.1218586 -0.058163986
000280 af da bd 3f 7c 84 41 be 9f 44 95 3d b2 1f e4 bf
       1.4832362 -0.18898195 0.07288479 -1.7822173
000290 1a d4 2e 3f 95 af 78 3f 47 ff 53 bf e0 cf a2 bc
       0.6829239 0.97142917 -0.828114 -0.019874513
0002a0 42 f0 41 bf 56 10 49 3d 0f 95 0d 40 68 99 a4 3f
       -0.7575723 0.049087845 2.2122228 1.2859316
0002b0 8f fd 28 3f c7 6a 56 3f f2 8d ec 3d 5d b5 86 3f
       0.660119 0.8375668 0.115505114 1.0524098
0002c0 fd 37 a9 3f 67 51 6f bc 8a e7 1d 3f b5 b1 b4 3e
       1.3220211 -0.01460681 0.61681426 0.3529183
0002d0 3a 45 1d 40 97 fc f1 3f 2d df bc 3f 17 6f c0 3f
       2.4573503 1.8905209 1.4755608 1.5033902
0002e0 d2 8f 83 3f 61 b3 e2 3f 73 d1 6c 3f cb 8f 9b 3f
       1.0278265 1.7710992 0.92507094 1.2153257
0002f0 7e bc f2 3c 32 5f 96 c0 e2 cd 8f bf 6f ed 9c 3d
       0.029630896 -4.6991205 -1.1234705 0.07662474
000300 7a 03 1c 3f 87 6a 15 bf 4f 6d 9f 3f 73 72 a6 bf
       0.60942805 -0.5836567 1.2455233 -1.3003677
000310 24 8d 88 be 00 07 47 bf ef 20 dd 3e 09 6d 1f 3f
       -0.26670182 -0.77745056 0.4318919 0.6227575
000320 0a 42 ca 3f 3c b7 a7 bc 6a 31 7d 3f 7d aa 22 be
       1.5801404 -0.020473115 0.98903525 -0.15885349
000330 51 e5 21 3e cb b0 d1 3f 32 93 e7 3f 56 0a ab 3f
       0.15810134 1.6382078 1.8091795 1.3362529
000340 a0 8f 8f 3f 67 9c 15 40 73 3c 7d 3f d6 db d3 3f
       1.1215706 2.337671 0.98920363 1.6551464
000350 5e f1 02 bd 9b 51 29 3f 20 c3 0f 3f 8b ee b5 3e
       -0.031968467 0.66140145 0.5615711 0.35533556
000360 4b 78 3e 3f 95 c6 89 bf 9e df ec 3e 1c c1 c8 3f
       0.744023 -1.0763727 0.46264356 1.5683932
000370 48 d8 ab bf a2 55 ae 3f fd b7 04 be f5 1b 8c 3f
       -1.3425379 1.3619883 -0.12960811 1.0946032
000380 f9 e0 2c bf c1 5c 25 3f 3f b1 8d bd 30 34 45 bc
       -0.6753078 0.64594656 -0.06918573 -0.012036368
000390 8e 61 b1 3f d2 5b 18 bf 64 1b de 3e 89 c5 6f 3f
       1.3857896 -0.59515107 0.43380272 0.9366079
0003a0 60 6a 06 3d ff 90 52 bd a1 64 d8 3e 20 49 aa 3b
       0.03281629 -0.05140781 0.42264274 0.0051967055
0003b0 3c fc 44 3e ef 19 da 3f 41 8c 85 3f d6 ba a4 3d
       0.19236845 1.7039164 1.0433427 0.080434486
0003c0 c8 22 7d 3f 72 8a 90 3f d4 bf a1 3d 45 a3 1b bd
       0.98881197 1.129225 0.078979164 -0.037997503
0003d0 e2 71 9a 3f 1e 9d d1 3e 9e 98 5d 3e 0d e4 cb 3f
       1.2066004 0.40940183 0.2164025 1.592897
0003e0 ce ef cf 3f dc fb 5a 3f fa 66 96 3f 04 e9 70 3e
       1.6245058 0.85540557 1.1750176 0.23526388
0003f0 ae a5 ad 3f 3e ad 2f bf ff 76 d8 bf 8e 84 4e 3f
       1.3566186 -0.6862372 -1.6911315 0.8067101

fc2.bias f4 [128]
000000 3f 75 2f bf 31 11 e4 3f 42 5e 3f bf 67 9a 31 bf
       -0.6853828 1.7817746 -0.747532 -0.69376224
000010 b0 d0 31 bf 14 1a 67 3d 2d 02 5f bd 8e a2 5b bf
       -0.69459057 0.056421354 -0.054445434 -0.85794914
000020 2e 5c 96 3d c4 a2 4e bf 4b 76 2c bf 69 4c 51 bf
       0.07341801 -0.8071711 -0.67368 -0.8175722
000030 9e a2 b6 be d5 cc 74 3f cf 9a 3f bf d8 ee 54 bc
       -0.35670942 0.9562505 -0.74845594 -0.012996398
000040 ac d2 20 40 d6 bd d4 3f eb a3 55 bf d5 28 69 bf
       2.5128584 1.6620433 -0.83453244 -0.9107793
000050 2d 1b ef 3f 92 e7 5e 3d 97 7e 23 bd 56 09 37 bf
       1.8680168 0.05442006 -0.039915647 -0.7149862
000060 1e 49 32 bf c9 56 c3 3e ce 3d 3d bf e5 b6 b5 3c
       -0.6964282 0.3815215 -0.7392243 0.022181937
000070 35 47 be be 4e 61 be bd 92 51 68 bf 38 a4 6a 3e
       -0.37163702 -0.09295903 -0.90749466 0.22914207
000080 77 d8 81 bf 8e 88 ce 3f 57 e6 4f bf fa 02 53 bf
       -1.0144185 1.6135423 -0.81210846 -0.82426417
000090 28 99 49 bf 3f 92 44 bf b2 83 2b bf 17 7a 6d bf
       -0.7874932 -0.76785654 -0.66997826 -0.9276442
0000a0 b0 d9 47 bf b8 08 9f bd 61 76 c7 3f b1 20 5a bf
       -0.7806654 -0.07765335 1.5583001 -0.85206133
0000b0 5a 11 3e bf 7d c5 c4 3f 8b 0f 11 bf 0a c3 6f 3d
       -0.74245226 1.5372769 -0.5666434 0.058535613
0000c0 94 35 4d bf 79 e2 b7 bd 5f eb 84 bd 3a 33 2c bf
       -0.8015988 -0.08978743 -0.06490206 -0.67265666
0000d0 86 85 61 bf 9d 3a c5 3f 5f 82 27 40 f9 b4 52 bf
       -0.88094366 1.5408512 2.6173322 -0.8230739
0000e0 f2 88 27 bd b5 be 51 bf a6 98 4f bf 24 03 a5 3c
       -0.040902086 -0.8193162 -0.810923 0.0201431
0000f0 57 b9 b6 bd c3 43 ac bd 97 6b 1d bf 45 22 31 bf
       -0.089220695 -0.08411362 -0.61492294 -0.69192916
000100 91 ce 7c bd be 94 19 bd 45 6d 56 bf c6 be 36 bf
       -0.061720435 -0.037495367 -0.8376048 -0.7138485
000110 24 25 e8 be 6b 33 1c 40 90 9c 48 bf 60 d0 35 bf
       -0.45340836 2.4406383 -0.78363895 -0.7102108
000120 32 a0 de 3c 9e 2f 2d 40 6f cd 53 bf d1 bb 31 bf
       0.027175996 2.7060313 -0.8273534 -0.6942721
000130 83 9f 55 bf 53 b7 66 bd 6c 5f d6 bb b8 b1 5b bf
       -0.8344652 -0.056327175 -0.006542137 -0.8581805
000140 10 80 2c 40 a1 62 b6 3f 84 e1 0f 3d f9 06 61 bf
       2.6953163 1.4248849 0.035127178 -0.87901264
000150 97 47 60 bf 24 23 41 bf 67 d0 1e bf 4d 6a 2a bf
       -0.8760924 -0.75444245 -0.62036747 -0.6656845
000160 9b 02 9f 3d 5b 34 4b bf 49 69 5c bf 94 20 2d bf
       0.07764169 -0.79376763 -0.8609815 -0.67627835
000170 1f 00 34 40 d7 37 27 3d 4e 2f 54 3d 3e b2 7f bf
       2.8125074 0.040824737 0.051802926 -0.9988135
000180 26 c9 68 bf a3 21 5b bf 21 57 57 bf ab 2d 46 bf
       -0.9093193 -0.855982 -0.84117323 -0.77413434
000190 58 d6 92 bd be 3a 71 bf b4 4b 6b bd 77 86 24 3d
       -0.07169789 -0.9423026 -0.057445243 0.0401673
0001a0 98 f3 b9 bc e4 7f 72 bf 34 60 98 bd eb 14 51 bf
       -0.022699162 -0.94726396 -0.07440224 -0.81672543
0001b0 33 f5 7d bf e8 f7 ba bd 10 66 4b bf 63 64 10 bc
       -0.9920227 -0.091293156 -0.7945261 -0.008812997
0001c0 5f 75 00 40 89 f1 25 bd 30 06 b8 bc 31 62 16 bd
       2.0071638 -0.04051355 -0.022463888 -0.036714736
0001d0 77 9d 4e bf 21 ce 41 bf d5 7c a0 bd 78 da 1d bf
       -0.8070902 -0.7570515 -0.0783631 -0.6166148
0001e0 32 31 9c bd 75 4f 6c bf 87 cd 5c bd 71 c2 d7 3f
       -0.07626571 -0.9230874 -0.053906944 1.6856214
0001f0 4f fe 49 bf ac 43 95 3c 09 bc 48 bf c2 50 24 bf
       -0.7890367 0.018220745 -0.7841192 -0.64185727

fc3.weight f4 [12, 128]
000000 66 3d 35 bf 3e 63 2e 3f 2b 6c 74 be ea 5b af bc
       -0.7079681 0.6812018 -0.23869388 -0.021406133
000010 b5 3f 13 bf a1 51 8d 3c b9 0a ae 3d 57 1d 97 3e
       -0.57519084 0.017250838 0.08498139 0.29514572
000020 b6 cb 74 3d f9 77 f5 be da ad 16 bf 04 29 04 bf
       0.059764586 -0.47943094 -0.58859026 -0.51625085
000030 f9 21 8c bf a0 01 6d 3f 7f d6 46 3e 5d 14 6e bc
       -1.0947868 0.92580605 0.19417761 -0.014531222
000040 16 ce 50 3f c7 9e 87 3f 55 37 7d be d2 2e 64 3e
       0.8156446 1.059533 -0.24728139 0.22283486
000050 c3 2f 97 3f 6e 9b b5 bd b2 26 02 bd c2 05 07 bf
       1.1811451 -0.088675365 -0.031775184 -0.5274316
000060 29 7f 9b be e6 55 aa bc 5c e9 1b be cc 7b 64 3d
       -0.30370453 -0.020792913 -0.15225738 0.055782124
000070 b4 34 5d bf 27 ff 64 bd 5c 07 a9 be 8c 6c 83 3f
       -0.86408544 -0.055907395 -0.33013427 1.0267501
000080 be 80 dc 3f 5e bc 0e 3e 0c ad 02 bf 30 c0 e6 be
       1.7226789 0.13939044 -0.510453 -0.45068502
000090 d6 15 a9 bc 83 bf 04 bf ba ec ff be 01 36 a0 bd
       -0.020640295 -0.51854724 -0.49985296 -0.078228004
0000a0 06 cf 73 bf ed bd b4 3c 3e c7 4b 3f aa 26 f6 3f
       -0.9523777 0.02206322 0.79600894 1.9230549
0000b0 80 d0 82 be 11 84 a9 3e 7f ae 60 3f 99 7c 32 bd
       -0.25549698 0.3310857 0.8776626 -0.043575857
0000c0 22 3f f3 be 9a e0 6c bd 24 00 a7 3c 18 93 5a bf
       -0.47509104 -0.057831384 0.02038581 -0.853807
0000d0 12 a2 36 bf 42 18 22 3f f2 e4 80 3f 44 29 8b bf
       -0.7134105 0.63318264 1.0069869 -1.0871968
0000e0 c1 85 8b 3d 6e 70 85 be 3d 55 53 bf b0 fb 37 3c
       0.06812621 -0.2606234 -0.8255194 0.011229441
0000f0 fe 1b 6a bd 3b 74 89 3d e1 84 37 40 8e 2d a6 be
       -0.0571556 0.06711622 2.8674853 -0.3245663
000100 0a 07 8c bd 46 6e 17 bd 2a 9d dd 3f 1d b8 21 bf
       -0.0683728 -0.0369704 1.7313588 -0.6317156
000110 23 a9 14 bd 02 e0 8f 3f be 60 ac be 9f d5 ea be
       -0.036294114 1.1240237 -0.33667558 -0.45866105
000120 a6 d5 60 3d cd 19 7f 3f 45 1a 02 bf cf d6 44 3e
       0.05489125 0.99648744 -0.50821334 0.19222568
000130 c9 aa 80 be 59 02 23 3c e0 4a 65 bc 5b 2a 63 be
       -0.251303 0.00994929 -0.013994902 -0.22184126
000140 78 29 81 3f 26 9f 53 3f 3d 76 5c 3c 85 ed dd be
       1.009078 0.82664716 0.013455925 -0.43345276
000150 d5 95 9e bd 5f f9 ef be 32 d2 81 be 42 ac f7 be
       -0.07743422 -0.46869943 -0.2535568 -0.4837361
000160 26 ae 86 bc 74 30 62 bf 06 a6 1a bf b0 40 03 bf
       -0.016440462 -0.88355184 -0.6040958 -0.5127058
000170 d2 f7 85 3f 02 79 e7 bc 7a 1f b3 bd c7 45 8d bf
       1.0466254 -0.028255943 -0.08746238 -1.1036919
000180 e9 ae cc be 07 6e 98 be 5e 3a a5 bd df 3b 8b bf
       -0.39977196 -0.29771444 -0.08067773 -1.0877646
000190 db 99 9d bd 21 48 af 3e 48 df 78 bd 39 06 ab bd
       -0.07695361 0.34234717 -0.060759813 -0.08350796
0001a0 7d 81 a4 bd 97 4f 00 bd e9 75 50 3d 65 8d c7 3e
       -0.080325104 -0.031325903 0.050893698 0.38975063
0001b0 e9 af ce be 14 5e 56 3d 9b d8 85 bf 59 03 96 3d
       -0.40368584 0.052335814 -1.0456728 0.07324857
0001c0 dc e4 43 3f 8e cf 62 bd b7 bf 97 bd 78 13 13 bd
       0.76521087 -0.05537372 -0.074096136 -0.03590724
0001d0 1c 85 8b be 34 e5 8f bf b0 bc 99 bd ec b8 ca be
       -0.27249992 -1.1241822 -0.075066924 -0.3959421
0001e0 72 04 35 3d 41 f9 b1 be b2 e5 d4 3c 06 62 db 3f
       0.044193693 -0.34760478 0.025988434 1.7139289
0001f0 47 7b 1f bf e8 a5 26 bd 64 4e c5 be 8f 89 cf be
       -0.6229748 -0.040685564 -0.3853637 -0.40534636
000200 35 5a 1a bf 64 96 57 3f 8b 52 d9 be 6e de bb be
       -0.60293895 0.8421385 -0.42445788 -0.36693138
000210 cf b7 0e bf a3 81 01 3d d8 8b 96 3c af 8f 88 be
       -0.5574922 0.03161777 0.01837723 -0.26672122
000220 42 58 96 3c cc c9 b0 be 25 d0 f6 be de 50 bd be
       0.018352631 -0.3452896 -0.48205677 -0.3697576
000230 cf f9 34 bf c0 14 76 3f 6e 64 0a bf c6 12 38 3d
       -0.7069368 0.9612541 -0.54059494 0.04493978
000240 7b 6e 46 3f 0b 52 72 3f 27 d1 bd be c5 10 8d be
       0.7751233 0.9465644 -0.37073633 -0.27551857
000250 5a d6 cf 3f cc 29 2f bd 4b 53 8d 3d 4b e1 d5 be
       1.623729 -0.04276447 0.069006525 -0.41773447
000260 87 a4 48 be ca 60 a8 be 94 f4 09 3e 26 e8 4e 3d
       -0.19594012 -0.32886344 0.13472205 0.050514363
000270 61 03 5a bf d0 86 e9 bb 23 41 d0 be 4e c8 8e 3f
       -0.85161406 -0.0071266666 -0.40674695 1.1154878
000280 62 d0 ad 3f 32 47 ce 3c cc e9 d0 be 12 f0 a6 be
       1.3579218 0.025180433 -0.40803373 -0.32605034
000290 6d 59 bd be 7b f9 d2 be ba 14 05 bf e1 2e e6 be
       -0.3698229 -0.41205963 -0.5198475 -0.4495764
0002a0 c6 55 2d bf a7 a0 c7 3c eb 4d 25 3f e5 d6 a9 3f
       -0.67709005 0.024368597 0.6457202 1.3268706
0002b0 b5 35 b6 be 4a c5 22 3e 6c b1 0e 3f 18 75 12 3c
       -0.3558785 0.15895572 0.55739474 0.00893905
0002c0 d8 b2 02 bf 62 13 b0 bd d3 da 85 3d 9b fc 7e be
       -0.51054144 -0.08597447 0.06535878 -0.24901049
0002d0 c6 c2 ec be 19 1c 7b 3e 73 a6 99 3f 52 16 d7 be
       -0.4624235 0.24522437 1.2003921 -0.42009217
0002e0 15 c9 86 bd 01 28 e4 be 32 58 f4 be 72 08 55 3d
       -0.06581322 -0.4456177 -0.47723538 0.052010007
0002f0 b4 15 9e bc b8 ad 0d 3c 52 cd f6 3f 42 57 2c be
       -0.019297458 0.008647375 1.9281409 -0.16830161
000300 9d 6a 92 3d 4c 95 67 3d 4b 35 ab 3f 4e 69 09 bf
       0.07149241 0.056538865 1.3375639 -0.5367631
000310 48 85 de be 36 9e 98 3f b2 46 ba be b4 8a b2 be
       -0.4346106 1.1923282 -0.3638206 -0.34871447
000320 5e 91 18 3d d4 23 81 3f 44 20 dc be 83 28 46 be
       0.037248008 1.0089059 -0.42993367 -0.19351391
000330 56 86 c1 be d8 f8 7e 3c f9 b7 5e 3d 8e 32 97 be
       -0.37797803 0.015562259 0.05437467 -0.29530758
000340 7e 10 85 3f f3 d5 1f 3f 6b 6c 89 3d 38 8f f9 be
       1.0395658 0.62435836 0.06710132 -0.4874208
000350 1e 2e d8 be 86 b0 87 be 16 db 96 be 75 20 1f 3e
       -0.42222685 -0.26501864 -0.29464024 0.15539725
000360 09 d6 36 bc d5 46 ff be cb ac fd be 5b 20 73 be
       -0.011159428 -0.49858728 -0.49545893 -0.23742811
000370 b6 51 81 3f df f4 49 bd a9 d7 56 bd 6e 51 b5 be
       1.0103061 -0.049305793 -0.052451763 -0.35413688
000380 b2 23 a1 be 9b 2b ea be 52 fe e7 be 87 06 03 bf
       -0.31472546 -0.45736393 -0.45311219 -0.51181835
000390 0a a0 68 3d fc f0 86 be 93 95 b8 bd 75 66 31 bd
       0.05679325 -0.2635573 -0.09012904 -0.0433106
0003a0 c0 89 86 3a 83 81 03 bf 9e 62 25 bd 4a 09 89 be
       0.0010264441 -0.51369494 -0.04037725 -0.267649
0003b0 2d c8 05 bf dd 65 17 bd c7 65 02 bf dd 67 3e bd
       -0.5225857 -0.03696238 -0.5093655 -0.04648577
0003c0 7d 78 3c 3f e2 8b 83 3d eb f3 93 3d 30 75 eb bc
       0.7362135 0.06423165 0.07224258 -0.028742403
0003d0 c9 85 c2 be b6 0a a6 be 52 93 a7 bd 19 f1 e9 be
       -0.37992695 -0.32430047 -0.08182396 -0.45691755
0003e0 68 2f d6 3c c2 26 ce be 37 13 a6 bd b1 a1 c9 3f
       0.026145652 -0.40263945 -0.08109134 1.5752469
0003f0 ec 60 0b bf ea 7f 60 bc 49 36 b2 be 49 74 5c be
       -0.54444766 -0.013702372 -0.3480704 -0.21528734

fc3.bias f4 [12]
000000 32 14 3c 3f 60 d4 63 3f c5 3a 7b 3f 91 9f 2c 3f
       0.73468316 0.88995934 0.9813655 0.6743098
000010 9d a8 8b 3f 93 3a 70 3f a2 5b 51 3f 7e a2 97 3f
       1.0910832 0.9383938 0.81780446 1.1846464
000020 d1 bb 7e 3f e1 e7 75 3f fb bb 81 3f 84 8f 8d 3f
       0.99505335 0.96056944 1.0135492 1.1059422
